…
im <- mnist$train$x[idx,,]
# Transpose the image
im <- t(apply(im, 2, rev))
image(1:28, 1:28, im, col=gray((0:255)/255), xlab = "", ylab = "",
        xaxt='n', yaxt='n', main=paste(mnist$train$y[idx]))
@

\item Implement a Convolutional Neural Network for the MNIST dataset. The network should have two convolutional layers as follows.
<<>>=
## _______________________________________________________________________
## Layer (type)                     Output Shape                Param #
## =======================================================================
## conv2d (Conv2D)                  (None, 26, 26, 32)          320
## _______________________________________________________________________
## max_pooling2d (MaxPooling2D)     (None, 13, 13, 32)          0
## _______________________________________________________________________
## conv2d (Conv2D)                  (None, 11, 11, 32)          9248
## _______________________________________________________________________
## flatten (Flatten)                (None, 3872)                0
## _______________________________________________________________________
## dense (Dense)                    (None, 64)                  247872
## _______________________________________________________________________
## dense (Dense)                    (None, 10)                  650
## =======================================================================
## Total params: 258,090
## Trainable params: 258,090
## Non-trainable params: 0
@
\item Explain why there are 320 parameters in the first layer. How many are kernel weights (and why), and how many biases?
\item Train the network using Keras. What is your loss and accuracy on the MNIST dataset?
\item Choose at least three 
…
rself.
\item As the next step, we will implement a convolutional neural network for the CIFAR-10 dataset using \texttt{dataset\_cifar10()}. See the \href{https://tensorflow.rstudio.com/examples/cifar10_cnn}{tutorial} for details on how to load data. Implement a similar CNN as in the tutorial. That is:
<<>>=
## Model: "sequential"
## ___________________________________________________________________________
## Layer (type)                     Output Shape                  Param #
## ===========================================================================
## conv2d (Conv2D)                  (None, 30, 30, 32)            896
## ___________________________________________________________________________
## max_pooling2d (MaxPooling2D)     (None, 15, 15, 32)            0
## ___________________________________________________________________________
## conv2d_1 (Conv2D)                (None, 13, 13, 64)            18496
## ___________________________________________________________________________
## max_pooling2d_1 (MaxPooling2D)   (None, 6, 6, 64)              0
## ___________________________________________________________________________
## conv2d_2 (Conv2D)                (None, 4, 4, 64)              36928
## ___________________________________________________________________________
## flatten (Flatten)                (None, 1024)                  0
## ___________________________________________________________________________
## dense (Dense)                    (None, 64)                    65600
## ___________________________________________________________________________
## dense_1 (Dense)                  (None, 10)                    650
## ===========================================================================
## Total params: 122,570
## Trainable params: 122,570
## Non-trainable params: 0
## ___________________________________________________________________________

@
\emph{Note!} This problem is more complex than the MNIST problem, so don't be surprised if you get lower accuracy than you got on the MNIST dataset.
\item Visualize one image of your choice from the CIFAR dataset together with its class/category.
…
